model.pth (torch, 67208 bytes, 13 tensors)

customer_embedding.weight f4 [239, 8]
000000 7c 22 55 be 00 c8 a9 bd 22 42 88 3e 11 c4 cc 3e
       -0.20813936 -0.082901 0.26612955 0.39993337
000010 b9 fb 6c be a5 79 f0 bf b8 7c d3 3f d0 96 8e be
       -0.231429 -1.8787123 1.6522436 -0.27849436
000020 cd ca 56 bf a3 a4 18 3f 72 71 2b 3f d6 c9 d8 bf
       -0.839032 0.59626216 0.6696998 -1.6936595
000030 00 ad 1b be fe 12 04 c0 49 fb 37 be a8 c9 a8 3f
       -0.15202713 -2.0636592 -0.17966951 1.3186541
000040 aa dd 43 3f 1b 49 1f 3e 45 eb b6 be 55 07 a0 be
       0.7651011 0.15555231 -0.3572637 -0.31255594
000050 1f 24 36 3c 8a d8 5b be 46 26 1a 3e 76 37 0a bf
       0.01111701 -0.21469322 0.15053663 -0.53990877
000060 c7 8a 36 bf d9 68 eb bf fb 5e e3 3e 5a 7b 89 3f
       -0.7130551 -1.8391372 0.44408402 1.0740769
000070 9f fe 3a 3f 18 ca 84 3e cb 5d dc be 51 92 94 bf
       0.7304477 0.25935435 -0.43040308 -1.1607152
000080 69 73 3d 3f d0 0e 4a bf 57 5b c7 be 80 82 08 be
       0.74004227 -0.7892885 -0.38936874 -0.13331032
000090 b4 b7 57 3f 34 0c 1c 3c 0f 43 f1 be 13 35 84 3f
       0.84264684 0.009524394 -0.47121474 1.0328697
0000a0 00 94 79 be 53 40 e9 3f 9a a3 6c 3f a2 7b 9e 3f
       -0.24372864 1.8222755 0.92437136 1.238148
0000b0 5a 42 5d bf 85 2e db bf 26 21 79 3e ff 86 1e bf
       -0.8642937 -1.7123572 0.24329051 -0.6192474
0000c0 3f 28 09 c0 11 c6 a0 3f 1d 47 72 3f 50 35 73 3f
       -2.1430814 1.2560445 0.9463976 0.95003223
0000d0 af 73 5c bf d3 93 a9 bf 4a 06 4b bf 3a d1 38 bf
       -0.8611402 -1.3248237 -0.7930647 -0.72194254
0000e0 a3 c5 b7 3e c1 1d 16 bf bd 6a f5 3e fa de 4b 3f
       0.35892972 -0.5863915 0.47932997 0.7963711
0000f0 8f ea c5 3f 29 c4 19 3f 55 cb 20 bf a6 4d d5 3f
       1.5462207 0.6006494 -0.6281026 1.6664321
000100 d2 0e 3f bf ac c6 2d bf b7 19 84 3f ec b7 56 3f
       -0.7463199 -0.67881274 1.0320348 0.8387439
000110 cc 6a e2 3e eb b3 10 3f 17 b6 c0 3e 2f 22 d6 3e
       0.44222105 0.56524533 0.37638924 0.41822955
000120 41 24 bf 3f 9f 51 b7 bf b2 10 ab 3f 51 b6 e5 be
       1.4932939 -1.4321784 1.336447 -0.4486566
000130 a7 3c f5 be 39 1a 45 bf 37 2a ca 3f 47 17 4c 3f
       -0.47897837 -0.7699314 1.5794133 0.7972302
000140 90 d0 51 bf 89 ce ba bf 63 eb 32 3f 34 35 2d bf
       -0.81958866 -1.459428 0.6989042 -0.67659307
000150 6f 97 68 be 55 5f db bf 5b eb d0 3e 13 45 d4 bf
       -0.22714017 -1.7138468 0.40804562 -1.658358
000160 f2 0b 96 bf 89 d2 c8 bf a2 30 49 3e 49 a4 ce bd
       -1.1722395 -1.568925 0.19647458 -0.10089929
000170 2e b9 77 3f 1e 99 32 bf c9 cf 0c 3f c6 45 6f be
       0.96766937 -0.6976489 0.55004555 -0.2336646
000180 f7 3a 33 3e 0a 5a b9 bf 95 30 40 bf 61 c3 a9 be
       0.17502962 -1.4480603 -0.7507413 -0.33156875
000190 5e 52 71 3e 70 0f 02 3f 8c 00 06 40 53 ec 6c bf
       0.23566577 0.50804806 2.0937834 -0.925481
0001a0 b5 a2 4a bf 69 a8 9d bf 5e 95 68 3f 58 19 67 bf
       -0.7915452 -1.231702 0.90852916 -0.90273046
0001b0 9a eb 06 bf 24 51 0d be cd 41 0a bf f3 62 bb be
       -0.5270325 -0.13800484 -0.54006654 -0.3659893
0001c0 c7 04 56 3f 9e 81 0a bf 59 a8 3e be 05 4c 95 bf
       0.8360104 -0.5410403 -0.18618907 -1.1663824
0001d0 68 91 7c bf 6f 8b 71 3f c2 d4 a0 be 6f 3c f4 bd
       -0.9865937 0.94353384 -0.3141232 -0.11925589
0001e0 2d 70 aa be 91 67 a2 bf 95 ea b6 3e 79 fd b9 3f
       -0.33288708 -1.2687856 0.35725847 1.4530479
0001f0 a5 ea dd bc 38 1b 78 be 07 01 5b 3f 61 62 4d 3f
       -0.027089426 -0.24229133 0.8554844 0.8022824
000200 54 7b 4a 3f 9f be 99 3e ec f7 c3 3e 2a 04 d2 3f
       0.79094434 0.30028245 0.38275087 1.6407521
000210 81 0c da be c5 b0 29 be 3a bc 07 3e 1f de 08 bf
       -0.42587665 -0.16571338 0.13255396 -0.5346393
000220 6f 20 7c 3f 76 94 02 3f fa 63 11 40 6e fa b0 bf
       0.9848699 0.51007783 2.271727 -1.3826425
000230 49 44 f4 3f 52 49 fb bc 2c 02 ba 3f d3 e7 ab 3f
       1.9083339 -0.03067461 1.4531913 1.3430122
000240 68 0d 14 3f 2d f8 2a 3f cf e6 24 bf 66 13 75 3f
       0.57832956 0.66784936 -0.64414686 0.95732725
000250 b8 2b 9a bf 50 be 92 3e 6f 03 a9 3f ef 61 6a 3f
       -1.2044592 0.28660822 1.3204173 0.91555685
000260 8f 1a 1d 40 07 40 db bc e3 b3 b2 bf ae f5 2c be
       2.454746 -0.026763929 -1.3961147 -0.16890594
000270 df 7d cb be fb 8e bb 3e 34 b9 01 3f ec d7 8e be
       -0.3974447 0.36632523 0.5067322 -0.2789911
000280 44 1d 21 be 8e 04 4a bf 71 ab 86 3f 5a 41 f4 3e
       -0.1573382 -0.789132 1.052107 0.4770611
000290 ed d8 1a 40 b9 60 e7 3f f4 ef a7 bf 98 cf 1f bf
       2.41949 1.8076392 -1.3120103 -0.6242614
0002a0 8c 0f e8 3d e7 72 1c 40 03 31 cd be 38 f2 c6 3f
       0.1133109 2.444513 -0.40076455 1.5542669
0002b0 a4 93 83 3f 08 5a 36 bf 13 93 9a bf af 5f 42 3f
       1.0279431 -0.71231127 -1.2076133 0.7592725
0002c0 41 ed a8 bf 00 ef 30 3b b7 14 fc 3f 8e 9e 4c 3f
       -1.3197404 0.0026997924 1.9693822 0.79929435
0002d0 55 28 89 3f 96 51 bc bf c1 db 23 be 0f 19 5b 3f
       1.0715433 -1.4712398 -0.16001798 0.8558511
0002e0 64 25 1b bf d2 3f fc bd ac 50 50 3f 9d c8 43 3e
       -0.6060393 -0.1231686 0.81373096 0.19119497
0002f0 ca 85 d7 bf f5 61 62 bf ab 90 c0 3e 0f 37 48 bf
       -1.6837704 -0.8843072 0.37610373 -0.7820901
000300 f8 43 27 bf fb 06 e8 3c a9 df 04 3a 90 7b 66 3f
       -0.6533809 0.028323641 0.00050687284 0.9003229
000310 07 2d 15 c0 20 a9 74 3d 55 f4 9f bd e2 3b 1f bf
       -2.3308733 0.059731603 -0.078102745 -0.6220075
000320 b3 3a ed bf 21 7c 87 3f 87 f1 96 bf c7 e4 0f 3f
       -1.8533539 1.0584756 -1.1792458 0.5620846
000330 19 d0 74 bf 00 ab 1b 3f 20 1f 92 3f 7c 72 42 3f
       -0.9563003 0.608078 1.1415749 0.7595594
000340 6c 8b 3d 3f 78 d4 86 bf 78 a5 32 be d5 cb 3c 3f
       0.74040866 -1.053359 -0.17445934 0.73748523
000350 0b 32 d0 bf b5 f3 5c bf d5 17 89 bf 7b e3 b5 bf
       -1.6265272 -0.8630937 -1.0710398 -1.4210047
000360 6e 5c f8 3e d4 b1 17 3f 71 ee 27 3f 11 a8 b4 3f
       0.48508018 0.5925572 0.6559821 1.411379
000370 fb bd 40 3f 42 87 7d 3f f9 80 ba bb 06 f9 c4 bf
       0.7528989 0.9903451 -0.0056916443 -1.5388496
000380 29 e6 10 bf c4 14 92 3f 55 42 56 bf 3f 0d 36 3f
       -0.56601197 1.1412587 -0.83694965 0.7111396
000390 8a 84 40 3f 94 bb a6 3e 3a fe 77 bf e3 8f 91 be
       0.7520224 0.32564986 -0.96872294 -0.2843009
0003a0 d8 f3 f5 bd 2d 3f 7b 3f 8f fd e1 3f 53 bb 92 bf
       -0.120094 0.98143274 1.7655505 -1.1463417
0003b0 5f eb 2f 3f b1 84 a4 3f f2 16 04 bb e0 9c 44 bf
       0.6871852 1.2852994 -0.0020155278 -0.7680187
0003c0 12 d6 bb be 4e dc ff 3f e3 79 1e 40 1a 53 10 3f
       -0.3668676 1.9989107 2.4761894 0.563768
0003d0 c5 e2 19 bf de 0e fb be c1 5d 2c bf 3e 8b ae bb
       -0.6011165 -0.4903478 -0.6733056 -0.0053266576
0003e0 7a 4a fe be f7 0c fb 3c e4 64 57 bf 71 3f 7c 3f
       -0.49666196 0.03064583 -0.8413832 0.98534304
0003f0 c1 7a da bd fe 2d c4 be 01 7d 0f 3f bd 0e 42 bf
       -0.10667945 -0.3831634 0.56050116 -0.7580374

product_embedding.weight f4 [1051, 8]
000000 99 1e 92 3e 06 ae 68 bf 60 a0 04 c0 bc 44 eb 3f
       0.2853897 -0.9089054 -2.0722885 1.8380351
000010 69 7c 5d be 35 01 b9 3e f3 f2 65 3e 70 22 b0 bf
       -0.2162949 0.36133733 0.22455959 -1.376051
000020 94 1b 76 bf 2e 10 8a 3e 3e 77 fe be c0 08 2e bf
       -0.9613583 0.2696547 -0.4970035 -0.679821
000030 fa 5d 92 bf 75 6f 8b be d0 bb d4 be 87 fa 45 3f
       -1.1434929 -0.27233472 -0.4154954 0.773354
000040 3a 8a d2 be 28 bd cb 3e d1 dd b0 bf 05 a7 af bf
       -0.41121083 0.39792752 -1.3817693 -1.3722845
000050 49 c3 1a bf 0d 3c 29 bf 43 4e 9c bf 4a 67 cb 3e
       -0.6045423 -0.66107255 -1.2211384 0.3972724
000060 ee b5 8b bf b7 08 9b 3f 16 8b 0d c0 e6 5a a0 3d
       -1.0914896 1.2112035 -2.2116141 0.078298375
000070 10 a0 37 3d dd 12 91 3d 27 14 7a be 62 ba 9e 3e
       0.044830382 0.07083676 -0.2442175 0.31001574
000080 0f b1 a2 3c b6 df 64 3e 07 e4 2e 3e f9 3b 50 3f
       0.019859819 0.22350964 0.17079173 0.8134151
000090 bd 39 0c bf 3d 56 34 bf c8 34 33 bf 1a 68 c7 bf
       -0.547756 -0.7044409 -0.7000241 -1.5578644
0000a0 7d 22 65 3f ac 6e be bf a2 ca d3 be 22 60 06 bf
       0.8950575 -1.4877524 -0.41365534 -0.5249044
0000b0 03 86 43 3f 19 f2 9a 3e c4 83 16 bf 4a ec 97 3f
       0.7637636 0.3026283 -0.5879481 1.1868985
0000c0 68 96 b9 3f 55 61 8f be 4b a3 a9 bf ef 39 78 3f
       1.4499025 -0.28003946 -1.3252958 0.969634
0000d0 c6 d5 5a bf 6f 40 e8 bf 23 c8 b5 be 2c 5e f0 be
       -0.8548244 -1.8144664 -0.35504255 -0.46946847
0000e0 ce ef 20 bf a5 73 8c 3f f5 db 9c 3e 70 08 99 3e
       -0.6286591 1.0972792 0.30636564 0.2988925
0000f0 39 5b 43 3f ad b1 5e 3f 31 0e 42 3f f8 13 91 bf
       0.7631107 0.8698986 0.75802904 -1.1334219
000100 eb 4d 98 be fc 44 8e 3f c6 d1 06 c0 37 7b 72 bf
       -0.29746947 1.1114802 -2.1065536 -0.9471926
000110 1d f8 7d 3f b3 3a 50 3e a9 e0 4d be c4 3e 92 bf
       0.99206716 0.20334892 -0.20105232 -1.1425405
000120 82 eb a3 bf 2a c5 93 bf f5 06 a1 be ab db be be
       -1.2806246 -1.1544545 -0.3145062 -0.37276968
000130 7c 2d 90 be f9 8c 84 bf 3f c8 ec 3f f5 3d 40 3f
       -0.28159702 -1.0355521 1.849861 0.7509454
000140 08 9f 21 bf d9 5b a5 bf b0 37 9c be 7f df 7e be
       -0.6313329 -1.2918655 -0.30511236 -0.24889944
000150 b6 e7 ce be dc 75 df 3e 1a 9d 20 3d 4e f8 31 3f
       -0.40411156 0.43644607 0.039212324 0.6951951
000160 c5 ce ec bf a0 07 1a 3f fe de d3 bf a6 cc 10 40
       -1.8500601 0.60167885 -1.6552427 2.2624907
000170 5f 5b eb bf 34 96 5b 3c ea 49 dd be 69 45 f4 3f
       -1.8387259 0.01340251 -0.43220454 1.9083682
000180 11 29 02 3e 5c 2a b2 3f 38 0a 86 be 0a 3e 52 3f
       0.12710978 1.3919177 -0.2617967 0.82125914
000190 fb 0c 96 be 67 b6 82 3f df e8 fb 3f c9 10 5d be
       -0.29306778 1.0211915 1.9680442 -0.21588434
0001a0 3f ca 12 be 90 75 81 bf ec 2a d4 3e 25 67 1f be
       -0.14334963 -1.0114002 0.41438997 -0.1556669
0001b0 ab 80 82 bf 45 f2 73 bf 50 a4 6f 3f d3 43 50 bf
       -1.0195516 -0.9529155 0.93610096 -0.8135349
0001c0 4f 24 ba 3d b2 ca 1d be 46 64 a9 3f 6d 0e 5a 3e
       0.090889566 -0.15409353 1.3233726 0.21294565
0001d0 b9 d2 24 bf 3a 15 ad 3e 09 b0 fa 3c 2e 49 74 3f
       -0.6438404 0.33805257 0.030601518 0.95424163
0001e0 b8 d7 60 bf 8d 04 7f bf f1 55 88 3f 7b fe a3 be
       -0.8782916 -0.9961632 1.0651227 -0.3203009
0001f0 b2 e5 91 3f 74 62 8a bd 9d 8b 6f be 81 82 08 3f
       1.1398222 -0.0675706 -0.23393102 0.53324133
000200 73 2c a6 3f b7 a2 20 be 30 45 74 3f cc af d0 bf
       1.2982315 -0.15687071 0.9541807 -1.6303649
000210 d0 05 98 3f e1 d3 21 3e b5 66 5d bf dc 05 d2 3f
       1.1876774 0.15803482 -0.86484843 1.6408038
000220 70 89 94 3e a4 09 81 bf 7b 13 61 3f c7 3e 8e bf
       0.29011106 -1.0081067 0.8792035 -1.1112908
000230 67 e6 c5 bf 02 eb 09 40 c3 6f 94 bd 66 cf ef be
       -1.5460938 2.1549687 -0.07247879 -0.4683792
000240 1d e2 d2 bf 29 e7 de 3e 69 2b 36 bf 34 27 98 bc
       -1.6475254 0.43535736 -0.7115999 -0.018573381
000250 b1 56 e3 bf 53 ca a4 bf 53 46 e4 3f 9e c4 0d c0
       -1.7760831 -1.2874244 1.7833961 -2.2151256
000260 d6 f9 8a bf b3 c4 70 3f 9a db d5 3e 0a 17 96 3e
       -1.0857494 0.9405014 0.41769105 0.29314452
000270 ba 2b 4a 3e 3e 4d a0 3f 58 61 05 bf f7 31 79 3f
       0.19743243 1.2523572 -0.5210166 0.97341865
000280 4b 27 d2 3e 1d 5c 80 bf a8 ff 5e be 2b 4d 36 3f
       0.41045603 -1.0028111 -0.21777213 0.712115
000290 33 92 cd bf 43 da a6 3f 36 f1 22 c0 f0 6c 89 be
       -1.6060241 1.3035358 -2.5459723 -0.26840925
0002a0 a0 a6 4f 3f b7 86 8d 3e bf 36 07 3e dc dd 12 3f
       0.81113625 0.27641842 0.13204478 0.5736978
0002b0 df 03 a3 3f ae 8e 48 3f 82 51 fc 3e 03 bb 91 3f
       1.2735556 0.7834271 0.49280936 1.1385196
0002c0 ea fd 3e be 83 ca 11 c0 22 69 7b bf a2 16 85 3e
       -0.18651548 -2.2779853 -0.98207295 0.2599383
0002d0 77 7b 3a 40 9b 93 f7 bf 02 a6 93 3f b9 ba 8f 3f
       2.9137857 -1.9341921 1.1535037 1.1228858
0002e0 e3 03 3b 40 ac b1 b9 3d ff 06 0c bf 18 d4 aa 3f
       2.9221122 0.09067091 -0.54698175 1.3345976
0002f0 84 94 95 be 76 fe 1c bf 5c c9 b7 bf 64 20 0d 3f
       -0.2921487 -0.61325777 -1.4358325 0.5512755
000300 10 e2 a4 3f 73 fc 2a 3f b7 9a 16 c0 a9 1c 89 bf
       1.2881489 0.66791457 -2.353193 -1.0711871
000310 e7 7d 0a be 0c 37 af bf 58 84 83 be 64 1f b0 be
       -0.1352459 -1.3688674 -0.25686908 -0.3439895
000320 58 6e 2f 3f e2 bd 58 bf e0 b4 e2 be cd 6e d9 3c
       0.68527746 -0.8466474 -0.44278622 0.026542092
000330 ea 77 76 bf c5 6f 8e 3e 44 fe 9a be bf 6b 15 3f
       -0.96276724 0.27819648 -0.30272114 0.5836753
000340 bc 17 85 bd ff f9 38 be 22 d0 66 3f 3a 06 e9 3e
       -0.064986676 -0.18064116 0.90161335 0.45512563
000350 db fc b3 bf 63 1b b3 3d 88 76 05 be e0 04 58 be
       -1.406154 0.08745458 -0.13033497 -0.2109561
000360 cf f9 06 bf ad 67 23 bf 42 22 00 c0 7a 9b 5d bf
       -0.5272493 -0.6383007 -2.002091 -0.86565363
000370 72 9c 42 3e e4 8b 4d be 1a 26 f5 bf 76 fc 34 be
       0.19004992 -0.20072895 -1.9152253 -0.17674431
000380 0f 98 e0 3e 7c e9 2a 3f 3d 45 30 bf e0 04 3d 40
       0.43866012 0.6676252 -0.6885565 2.9534225
000390 da 75 aa bc 76 2f 2c 3f cb ca 6d 3f c3 67 b5 3f
       -0.02080815 0.6725992 0.9288756 1.417229
0003a0 48 bb 97 bf 73 19 ab be 4b 8d b0 3f d9 cd ac 3f
       -1.1854029 -0.33417854 1.3793119 1.350032
0003b0 0f 02 0d bf 8d 75 95 3f 76 ed ae 3f 91 2a 6a 3f
       -0.55081266 1.1676499 1.3666217 0.914712
0003c0 db 1b b0 3f ba dd a3 bf f0 5f ad bf 2f 65 86 3e
       1.3758501 -1.280204 -1.3544903 0.26249072
0003d0 dd cd c1 3f 3b 18 8b 3f 9b 46 94 bf 99 28 d6 3f
       1.514095 1.086677 -1.1584047 1.673114
0003e0 b1 4f a4 bf 80 e3 12 bf ff 19 21 c0 23 1b 91 3f
       -1.283682 -0.5737839 -2.5172117 1.1336406
0003f0 dc 51 89 3e 13 d6 84 3f 4c 58 a2 3e 69 d0 bf bd
       0.26820266 1.037783 0.3170799 -0.09365923

customer_type_embedding.weight f4 [2, 8]
000000 e4 3e 60 bf 1a 03 3c 3f ef ae be 3e 50 20 4e 3f
       -0.87595963 0.7344223 0.3724284 0.80518055
000010 80 c7 35 3f d8 2f 05 40 24 f2 55 be 93 46 97 bf
       0.7100754 2.0810452 -0.2089315 -1.1818413
000020 29 39 02 c0 9f ba 13 3e b1 99 1b bd 39 d1 67 bf
       -2.0347388 0.14426659 -0.03798837 -0.90553623
000030 a1 5c 83 3f 7a 0e 03 bf a6 37 0e 3f 15 c3 4f 3f
       1.0262643 -0.51193964 0.5555366 0.81157047

purchasing_power_embedding.weight f4 [8, 1]
000000 3d ce 8c 3e cf 57 3f 3f ff eb 21 bf a7 3c 4e bf
       0.27501097 0.7474336 -0.63250726 -0.805613
000010 15 2c e5 be 81 0f 90 be f8 3a 9f 3e c5 c2 6c bf
       -0.44760194 -0.2813683 0.31099677 -0.92484695

purchasing_power_embedding.bias f4 [8]
000000 e9 40 78 3f 91 90 0e be 05 82 38 3f 38 e4 1b bf
       0.96974045 -0.13922335 0.72073394 -0.6089511
000010 93 30 3b bf 85 4e 7e bf 20 25 a9 be 25 f7 cb be
       -0.73120993 -0.9933856 -0.33036137 -0.39836994

product_category_embedding.weight f4 [12, 8]
000000 1e 5a cc 3f 0d 78 1a 3f 7d 47 ed 3e b6 11 f5 bf
       1.5965002 0.6033943 0.46343604 -1.914603
000010 c5 75 64 bf cb 68 91 3f c9 a1 75 3f 39 7d c7 3d
       -0.892422 1.1360105 0.9594999 0.09740681
000020 ed 05 b7 3f 88 f9 c9 3f 95 5c 0b 3f 80 03 2e bf
       1.4298683 1.5779276 0.54438144 -0.6797409
000030 b0 3a 8f 3f a9 b2 85 3e 84 3f 32 bf 9d 69 3c be
       1.1189785 0.2611287 -0.6962817 -0.18399663
000040 86 6b c2 be b4 ca 7d bd 39 08 8d 3e e5 28 0e be
       -0.3797266 -0.06196089 0.27545336 -0.13882788
000050 10 dc bb 3e fd 05 a6 bf 19 48 a2 3e 73 44 e9 be
       0.36691332 -1.2970577 0.3169563 -0.45560035
000060 d8 e3 09 40 d7 cf 2a 3f 1a f7 15 3e 81 e0 ce 3f
       2.1545315 0.6672339 0.14645043 1.6162263
000070 a6 23 b6 3f a3 a7 44 bf e6 96 22 bd 4a da 7a 3e
       1.4229629 -0.76818293 -0.03969469 0.24497333
000080 33 59 dc bf a7 f8 bb 3e 3f 60 4d bf ad 8d 89 3e
       -1.7214721 0.36713144 -0.80224985 0.26865903
000090 76 a6 7f 3e ab cb de be 3b 69 ab 3f 07 77 28 be
       0.24965844 -0.4351476 1.3391489 -0.16451655
0000a0 95 a2 ef 3e a1 17 ce bf fa ec 81 3f ee c1 96 bf
       0.46803728 -1.6100961 1.0150445 -1.1777933
0000b0 39 b4 a9 3f da d0 ff 3e 3b 3f 2f bf b3 d8 81 bf
       1.3258125 0.4996403 -0.6845586 -1.0144256
0000c0 6a 70 18 bf 15 ce f6 bf 3b fa 56 3f 8e fc a9 3f
       -0.5954653 -1.9281641 0.8397557 1.3280199
0000d0 eb 2c 2e 3f 6e fc a1 bf 72 d0 01 bf 99 a5 8b bd
       0.6803729 -1.265516 -0.5070869 -0.068186946
0000e0 da 37 ed 3c c4 e1 c8 3e 73 f2 b7 3f 2e 83 8f 3e
       0.028957296 0.39234746 1.4370865 0.2802977
0000f0 27 76 9c bf 46 4b c6 3f 8a 03 69 3f cc 2b ab 3e
       -1.2223557 1.5491722 0.91021025 0.33431852
000100 c9 95 a3 3f b7 0a 1e 40 aa e8 68 3f 37 22 c0 bf
       1.2780086 2.469404 0.9098002 -1.5010442
000110 01 b6 8a 3e d9 b4 ba bf fc d2 e0 3e 27 af f0 bd
       0.27091983 -1.458644 0.43910968 -0.11752158
000120 17 49 89 3f fc 57 eb 3e d3 38 cd bd f3 25 8b 3f
       1.072543 0.45965564 -0.10020604 1.0870956
000130 23 8b 55 bd 65 f6 fd 3e b2 dc 96 3f 2f bf 12 bf
       -0.052134644 0.49602047 1.1786101 -0.57322973
000140 e9 34 73 3f 00 63 50 bf 96 08 61 bf 5c 9f 07 bf
       0.9500261 -0.8140106 -0.87903726 -0.5297754
000150 a4 0a bf be 06 69 d3 3d b5 1f d5 3f 29 8d 2e bf
       -0.37312806 0.10322766 1.6650301 -0.68184143
000160 39 5e 46 bf 00 99 2e 3e a5 d7 7c bf dc ed ab 3e
       -0.7748752 0.17050552 -0.9876655 0.3357991
000170 92 53 ad 3f 62 cb 6a 3e fe fb 11 40 0d 3a 45 bd
       1.3541129 0.22929147 2.2810054 -0.048151065

product_price_embedding.weight f4 [8, 1]
000000 4f f3 e4 be fe 3b 48 bf 78 8c 75 3d 36 a4 a1 be
       -0.4471688 -0.7821654 0.059948415 -0.31570596
000010 f7 f7 60 3f da fa 57 bf 85 06 35 3e 08 e7 34 be
       0.87878364 -0.84367144 0.17678268 -0.17666256

product_price_embedding.bias f4 [8]
000000 7b e5 2b 3f dc 2c 34 3f 78 55 f1 be 29 5c 82 bf
       0.67147034 0.7038095 -0.4713552 -1.0184375
000010 ea b9 80 bf 5f 62 5b bf 45 f2 cf be 82 d9 21 3e
       -1.0056736 -0.8569698 -0.40614524 0.15805629

fc1.weight f4 [64, 48]
000000 ff a0 d9 3d a7 e6 f2 bd a2 b8 a8 bc e5 8f da bc
       0.10626411 -0.118604 -0.020595852 -0.026679942
000010 06 32 15 be 7e b2 a6 3c 6f 0c 37 3c 7c 0f dd bd
       -0.14569864 0.020348784 0.011172398 -0.10793969
000020 e6 a7 11 be 36 22 d3 bc 7f 1d ce bc 23 1f 0e 3e
       -0.14224204 -0.025773149 -0.02516055 0.13879065
000030 1f 5e 81 3d b6 81 ec bc ea bd bd 3c 4d 50 d7 bd
       0.0631678 -0.028870445 0.023161847 -0.10513363
000040 e5 79 2e be 85 55 dd bb f7 57 22 3d 61 41 d9 3d
       -0.17038687 -0.0067545795 0.03963467 0.10608173
000050 05 69 0d bd 5e 06 d7 bd 0c 6c c6 bd 28 5d 89 3b
       -0.034523983 -0.10499261 -0.09688577 0.0041920133
000060 25 28 c2 bd b1 61 95 3d 4a f2 a9 3c 7f 4f c6 3b
       -0.09480313 0.07294024 0.020745415 0.006051957
000070 5b 75 a9 bc 8d 37 5a 3d 50 5c 20 3d 0d ec 16 be
       -0.020685842 0.053275634 0.039150536 -0.14738484
000080 86 5a 1d 3e 87 52 44 bc bd a9 b4 bd 78 fb a0 bd
       0.15366563 -0.011982567 -0.088214375 -0.07860464
000090 b4 36 d0 bc 7c 2c 9c 3d ce 71 26 bd b9 c8 b1 bd
       -0.02541671 0.07625672 -0.040635876 -0.08680863
0000a0 68 91 ef 3d 3b f8 62 3d 33 ff b2 bd 20 cb c2 bd
       0.11697656 0.055412512 -0.08740082 -0.09511399
0000b0 97 4b 07 be 97 ce f7 bc d0 3f 2c be a8 e1 90 bc
       -0.13212429 -0.030249877 -0.16821218 -0.017685726
0000c0 ff 5a 8f 3c 1a 6b 47 3b e9 19 c1 bc 98 a6 b7 bd
       0.017499445 0.0030428828 -0.023571925 -0.08967322
0000d0 52 86 fb bd b0 2d 80 bd ad d7 9f bd 18 e1 f3 bc
       -0.12281479 -0.06258714 -0.07804809 -0.029770419
0000e0 12 92 d2 bd 88 11 b1 3d 13 6d fc bd 28 78 96 bd
       -0.10281767 0.08645922 -0.12325492 -0.07347137
0000f0 e1 0b c6 3b ba 89 dd bd 90 5f 0e be a7 f3 c5 3d
       0.0060438965 -0.10817285 -0.13903642 0.096656136
000100 aa 91 99 3d 1c ae 0a 3e dc 88 48 bd fb 45 ea 3c
       0.07498486 0.1354298 -0.048958644 0.028597822
000110 f3 d4 1f 3e c1 37 1d 3e 85 41 57 bd 5b ef 38 3d
       0.15608577 0.153533 -0.05255272 0.045150142
000120 ea 99 03 3e e9 55 70 3d e5 55 d5 3d 71 12 db 3d
       0.12851682 0.05867568 0.10416774 0.10696877
000130 ab e0 cc 3c 76 34 18 be 04 b2 a9 bd a4 3b 1b be
       0.025009474 -0.14863762 -0.08285907 -0.1515947
000140 30 4a 7d bd 83 32 b9 3d e1 4e ce bc 7f f7 93 3d
       -0.06183833 0.090428375 -0.025184097 0.072249405
000150 85 b8 1a bc 0e a9 0a be ef f1 5f 3c 67 df cf bd
       -0.009443407 -0.13541052 0.013668521 -0.101500325
000160 52 49 00 3e f4 63 d2 bd e3 31 a0 bd 97 10 ad 3b
       0.1252797 -0.10272971 -0.07822015 0.0052815187
000170 bb c0 5a 3d 49 02 cb 3d d3 26 23 be 05 3a 06 3e
       0.05340646 0.09912545 -0.15932779 0.1310807
000180 4b e1 26 be 21 5c 13 be 65 c6 be 3d bb 1d b2 bd
       -0.1629688 -0.14390613 0.093151845 -0.08697077
000190 f2 a7 4d 3b 34 e2 ae bd a5 ff fb bd f5 df 8f bd
       0.003138062 -0.085392386 -0.1230462 -0.07025138
0001a0 7a 55 e7 bd 66 41 98 3c da ff fe bc 8b fe 6e bd
       -0.112956 0.018585872 -0.031127859 -0.05834822
0001b0 02 aa 19 bc fd 65 4d 3d 4f f6 90 bd 0a 36 b0 3d
       -0.009378912 0.05014609 -0.0707823 0.08604057
0001c0 1d 2f 93 bd 9d 36 dc 3c 5d 82 22 bd 29 32 8a 3d
       -0.071867205 0.02688151 -0.039675105 0.067478485
0001d0 4b cd be bd 7e 34 13 be dd 49 f1 3c 70 24 9e 3d
       -0.093165 -0.14375493 0.029454166 0.07721794
0001e0 80 96 a6 bd 37 d8 ff bc 5e de c7 bc 14 7e 8a 3d
       -0.08134174 -0.031231029 -0.024398025 0.06762329
0001f0 73 4a 0e be d8 d1 d0 bc 52 47 83 3d 98 08 07 be
       -0.13895588 -0.025490686 0.06410088 -0.13186872
000200 52 2d 92 3d eb 1c 81 bc 7c af fc 3d cb 85 df bc
       0.071375504 -0.01576086 0.123381585 -0.027285477
000210 8b 7f a8 3d 8e 06 bd 3d 32 54 a4 bd e4 5d 9b bd
       0.08227452 0.09229766 -0.080238715 -0.075862676
000220 3b c4 0a bd b7 ae 92 bc 2e a5 bf bd 27 cf 0e bd
       -0.033878546 -0.017905576 -0.093576774 -0.034865525
000230 44 c6 38 bd 39 67 66 bb e2 59 e6 3d d7 b2 1c 3d
       -0.045110956 -0.003515674 0.112476125 0.038256492
000240 76 b9 f3 bd ea 64 c5 bd a1 01 1a be ce 65 2d 3d
       -0.11900608 -0.096383885 -0.15039684 0.042333417
000250 cb 3b b3 bd 4f cc e4 bd 7f 4f 4d bd 7c 58 4f bc
       -0.08751639 -0.11171781 -0.05012464 -0.012655374
000260 e0 f8 d7 bd d7 6c b9 3d d1 9a bf 3d 1c da 0d 3e
       -0.10545516 0.09053963 0.09355701 0.13852733
000270 23 91 fb bd c1 2b 11 3e 13 48 a5 3d 2b 3a ed bd
       -0.12283542 0.14176847 0.08070388 -0.1158336
000280 62 82 d3 bd 18 ee c9 3d d5 d4 45 3d 64 3d cb 3d
       -0.10327603 0.09859866 0.048298676 0.09923819
000290 06 ba 8d bd ae ed e7 3d 56 fa 06 3e 0d fc 04 be
       -0.06920247 0.11324631 0.13181433 -0.12986775
0002a0 50 70 9a bd 6f cf e5 3d 0a 63 14 bc d1 ce d0 3d
       -0.07540953 0.112212054 -0.009056816 0.10195697
0002b0 2e d8 9a 3d bd 82 9e bc 5b d6 7a bd c8 be b8 3d
       0.07560764 -0.01934945 -0.06123958 0.09020764
0002c0 36 f6 ae 3c 51 c0 f5 3c 60 c3 a6 3d c5 f3 9f bd
       0.021357637 0.02999893 0.081427336 -0.07810167
0002d0 96 6c 50 bd 7b 83 b4 3d 9c f7 9b 3d 1e 89 50 bd
       -0.050884806 0.088141404 0.07615587 -0.050912015
0002e0 e7 6f e1 bd eb 52 52 3d eb ee 04 3d af 4b 21 bd
       -0.11007672 0.051348608 0.032454412 -0.039378818
0002f0 5a 09 d2 bd 23 4a 7c 3d d5 ef 00 3d 25 35 ea 3d
       -0.1025569 0.06159414 0.03147872 0.11435918
000300 34 82 d3 bd 32 29 12 3c 3f 25 dc bd 1b 1f 9b 3d
       -0.10327569 0.008920955 -0.10749292 0.07574292
000310 5f 30 46 bd 10 39 59 bd 7c 60 c8 bc 4a 6d 32 bd
       -0.048385974 -0.053032935 -0.02446007 -0.043561257
000320 89 f5 57 3d d9 a5 82 bd f0 5b 63 bd b8 1b ef bd
       0.052724395 -0.06379289 -0.0555076 -0.11675209
000330 a2 c6 27 3d d6 b5 f5 bd 15 cd d6 3c b6 8d 06 be
       0.040960915 -0.11997573 0.026220838 -0.13139996
000340 ec cd fe bc 9f fb db bc 6f e0 4a bd 2e 9d d9 3c
       -0.03110405 -0.02685338 -0.049530443 0.026564207
000350 55 f1 de 3c 8a 55 8f 3d 8f b5 b0 3d 0c 83 eb bc
       0.027214685 0.06998737 0.086283796 -0.028749011
000360 fa df ab 3d 92 49 16 bd 69 50 a9 bd 6e 9c d8 3d
       0.083923295 -0.036691256 -0.0826729 0.105767116
000370 d4 03 12 be 89 d6 10 3e 16 34 e2 3d 7c 2d 01 be
       -0.14259273 0.14144339 0.11045091 -0.12615007
000380 5e 39 e6 bc b0 84 d7 3d 45 b3 c4 3c 93 24 fd ba
       -0.028103527 0.10523355 0.024011264 -0.0019313268
000390 79 51 f5 bd 08 46 b9 3d 28 58 00 3d 04 b4 dc 3d
       -0.1197843 0.090465605 0.031334072 0.10776523
0003a0 56 52 e2 bd e8 47 d0 bd f9 51 a9 bd a2 51 80 bd
       -0.110508606 -0.10169965 -0.08267588 -0.0626557
0003b0 d3 ae 54 3d dc 9e 11 3e 19 7b c4 bd 9d 9e e9 bd
       0.051924538 0.14220756 -0.095937915 -0.11407206
0003c0 2a ff 1b 3d 5e 4c 0b be fc b6 d1 bd 6d 33 c5 3d
       0.03808514 -0.1360335 -0.102399796 0.09628949
0003d0 32 24 cb 3d dc ad 84 bd b2 65 00 3e b4 87 d1 3c
       0.09919013 -0.064784735 0.12538794 0.025577404
0003e0 3e 60 1a 3e 70 d7 15 3d e2 9e 1d bc 88 9b b4 3d
       0.15075776 0.03658241 -0.0096204 0.08818728
0003f0 25 e0 c0 bd ba 05 19 3e b3 d1 a4 bd 4a d5 1c be
       -0.09417752 0.14943591 -0.080478095 -0.15315738

fc1.bias f4 [64]
000000 86 ae b0 bd 9e 33 19 3e bd b8 9e bc cb 33 b8 3d
       -0.08627038 0.14961097 -0.0193752 0.08994254
000010 fb 50 aa bd 35 04 bc 3b 83 e3 9c bd 88 83 ca bd
       -0.08316227 0.005737806 -0.07660582 -0.09888369
000020 13 45 ff 3d e5 83 23 3e ee f2 4e bd 55 26 ad 3d
       0.12464347 0.15968283 -0.050524645 0.08454577
000030 71 6d 7d bc b0 15 9a bb 45 a5 09 3e 9b 59 25 3e
       -0.015467987 -0.0047022924 0.13441952 0.16147463
000040 9c 7d 9d bb 65 8e 22 3c 71 e4 3e 3c a6 1c 19 3b
       -0.0048062336 0.009921645 0.011651144 0.0023363023
000050 f0 ff 29 3e 6c 77 87 3d 70 5d 7e 3d dc a5 11 be
       0.16601539 0.06614575 0.062100828 -0.14223427
000060 7e 80 26 3e 57 26 b1 bd 61 69 ad 3d f2 2d 03 be
       0.16259953 -0.08649891 0.08467365 -0.12810495
000070 b3 cf 51 3d 31 06 c8 3d 7f 8a 2c 3c 2a 53 e8 3d
       0.051223468 0.09766806 0.010531067 0.11343987
000080 81 b9 e2 3c 89 ed f2 bc 37 f9 16 be da 57 cd 3d
       0.027676346 -0.029654281 -0.14743505 0.10026522
000090 7d 57 c0 3c 85 fc eb 3c 0c 48 ef bd 9a 03 ca bc
       0.023479218 0.028806934 -0.11683664 -0.02465992
0000a0 9e 14 10 bd fd 1a 24 bd cd 81 b0 bd f0 c5 24 3d
       -0.035175912 -0.0400648 -0.086185075 0.04022783
0000b0 fc cf 43 bc 1d 79 01 3e de 6d 8e bd 42 47 5f bc
       -0.011951443 0.12643857 -0.06954549 -0.013627829
0000c0 81 d2 f5 bd 41 cb 19 3e bd 47 cf 3c 14 d1 e2 3d
       -0.12003041 0.15018941 0.025302762 0.11075035
0000d0 21 81 20 3e 3c 62 4e bd 65 5e b5 bd e7 13 87 3d
       0.15674259 -0.050386652 -0.08855895 0.06595593
0000e0 46 91 00 3e f0 8c f3 3d 55 87 ab 3d 1a 8a 4d 3d
       0.12555417 0.11892116 0.08375422 0.050180532
0000f0 a5 a0 ca 3d 7c d3 6a 3d 1a 5a 68 3d 72 9c 8d 3d
       0.09893922 0.057330593 0.056726553 0.06914605

fc2.weight f4 [32, 64]
000000 54 b9 a2 3d 77 2e ce 3c 63 25 b1 3d 05 39 ce bb
       0.07945505 0.02516864 0.08649709 -0.0062934184
000010 6c c0 ee 3d 19 9e 9b bd 08 9d 04 3e 54 e2 f7 3d
       0.11657795 -0.07598514 0.12950528 0.121037155
000020 27 c7 95 bc bb 32 cc 3d e5 58 80 bd b2 4c f9 3d
       -0.01828344 0.099706136 -0.06266955 0.121728316
000030 3c 3d 15 3e 52 1c a2 3d 54 18 cd 3b cb 87 81 3d
       0.1457414 0.07915558 0.0062590037 0.063247286
000040 c2 55 ae 3d 10 83 88 3d 11 4d e6 3d 2f 78 28 3c
       0.08512451 0.06665623 0.11245168 0.01028256
000050 91 eb 12 bc 00 4e 14 bd 83 24 09 3d e2 1f 2b bb
       -0.008967296 -0.0362072 0.033482086 -0.0026111533
000060 bf 3b 1d 3e a3 b3 59 bc c4 71 98 bd 71 6b c0 bd
       0.15354823 -0.013287458 -0.07443574 -0.09395493
000070 37 ad a2 3d 17 f3 05 3e 8f 45 00 3d e1 c5 ea 3c
       0.07943194 0.13081013 0.031316336 0.02865881
000080 a7 b8 08 3e 24 97 f5 3c 94 47 db 3d ac d1 96 bd
       0.1335169 0.029979296 0.10707012 -0.073642105
000090 b7 7b b7 3d b0 4a 3c bd 01 0d 8d 3d 7e 48 0b bd
       0.089591436 -0.045969665 0.06887246 -0.03400468
0000a0 33 78 99 bd 14 9d b3 3d 59 8c f9 3c 6c 9f a0 3d
       -0.07493629 0.08770195 0.03046243 0.07842907
0000b0 12 87 8f bd 31 d1 4f bd b7 23 19 be ee b5 ce bc
       -0.070081845 -0.05073661 -0.1495503 -0.025233235
0000c0 e0 e5 16 3d b8 3e c2 bc 57 46 74 3d df 4f 0e 3e
       0.03684032 -0.023711547 0.059637394 0.13897656
0000d0 9b ee b2 3d 08 d2 57 bd f5 f7 81 bc 58 de af 3d
       0.08736917 -0.052690536 -0.015865305 0.085873306
0000e0 37 d3 27 bc 4b 9a 28 3d bf 15 8d bd 3b c0 c3 bd
       -0.010243229 0.04116277 -0.06888913 -0.095581494
0000f0 12 42 95 3d 2d 02 1d 3e f6 65 6c 3d bd a1 6f bc
       0.072879925 0.15332861 0.057714425 -0.014625964
000100 46 a5 01 3e ab f2 57 bb 3e b1 03 3e e5 ed b4 bd
       0.12660703 -0.0032951038 0.12860581 -0.08834437
000110 60 3d df 3d 4a 27 e2 3d ae 42 0c 3e 5f 09 9c bc
       0.10900378 0.1104265 0.13697311 -0.019047437
000120 58 bf 48 3d ed 61 9c bd 55 39 57 bd 22 6a e8 3d
       0.049010605 -0.07635865 -0.05254491 0.11348368
000130 3f 9f 2b 3b 75 d9 03 bd 37 24 00 bd 07 ac 15 3e
       0.0026187447 -0.032189805 -0.031284537 0.14616404
000140 85 3f 79 bd 7b 3d cc bc 08 9b 1c 3c 83 44 7d 3b
       -0.060851593 -0.02493166 0.009558447 0.0038645572
000150 7e a1 22 3e 82 82 80 3d a4 56 13 3d 74 8b 18 3e
       0.15881917 0.062748924 0.0359713 0.14896947
000160 f7 7b 95 3d ee eb e1 3d 83 ab 20 3e b7 9b eb 3d
       0.07299035 0.11031328 0.15690427 0.115043096
000170 34 4b 61 3d 3d bf 17 3e 80 d3 b2 3d 6a 30 a4 3c
       0.05500336 0.14819045 0.08731747 0.020042617
000180 7b e7 16 bd 37 3d bd bd f9 8b 2a bb aa 3e ae 3d
       -0.03684185 -0.092401914 -0.0026023372 0.08508046
000190 68 74 b2 bd 57 ab d8 3d 3b 70 22 bd c8 fb da 3c
       -0.08713609 0.105795555 -0.039657813 0.026731387
0001a0 4a ca d5 3d 00 ac be 3d 10 8b 00 bd 36 db 0f 3d
       0.10438974 0.0931015 -0.03138262 0.035121165
0001b0 ae 3c 16 3c 43 da ac bd cb a0 b6 bc 48 2a 05 3d
       0.009169741 -0.084400676 -0.022293469 0.032511026
0001c0 89 9d 9d 3d 88 54 08 bd 8a 53 fe 3d 62 93 59 3d
       0.07696063 -0.03328374 0.124182776 0.05311907
0001d0 b5 79 ee bb 3d 71 06 3e 20 fa 1c 3e 56 1b b3 3c
       -0.007277692 0.13129134 0.1532979 0.02186362
0001e0 9b a1 90 3d 07 7b 55 3c cc 8f 04 bd 65 9e e4 3d
       0.07062074 0.01302982 -0.032363698 0.11163024
0001f0 65 ec f9 3d 90 35 e7 3d 1b e8 b1 3d c6 74 55 bb
       0.12203292 0.11289513 0.08686849 -0.0032570823
000200 2e b2 d9 3c 61 5b 91 bd 4b f2 49 3b b3 d7 79 bd
       0.02657422 -0.07097507 0.0030814584 -0.060996722
000210 f1 c9 38 bd e4 35 a5 3d b2 5a e0 38 8c 91 96 39
       -0.04511446 0.080669194 0.00010698046 0.0002871867
000220 14 17 ff 3d ec 83 f7 3d 6f 19 e1 3d f8 89 f1 bc
       0.12455574 0.12085709 0.10991179 -0.029484734
000230 82 d2 cd 3c 31 70 7b bd 3e 63 7e 3d 96 bc d2 bc
       0.025124792 -0.06138629 0.062106363 -0.02572469
000240 09 99 f2 3d 19 8f 12 bd d3 3d 43 bc 3f 0d 43 ba
       0.118455954 -0.035781 -0.0119165955 -0.00074406335
000250 4f b1 04 bd ea 38 09 3e 19 be 48 bc e6 83 03 bc
       -0.032395657 0.13400617 -0.012252354 -0.0080270525
000260 24 27 27 3e a9 53 1f 3d 8c 19 b5 bd 0e df 64 3d
       0.16323525 0.038898144 -0.08842763 0.055876784
000270 c0 9b eb 3d 60 80 de 3d 3d 64 a0 bd 73 9b c3 bb
       0.11504316 0.10864329 -0.07831619 -0.0059694587
000280 c5 7c 55 bd 5e d5 8b bd 62 2c f4 3c b2 ca 9d bd
       -0.052120943 -0.06827806 0.02980632 -0.07704677
000290 45 72 12 3e 4f 98 e0 3d b8 4d 10 3e 1a 78 1e 3d
       0.14301403 0.109665506 0.14092147 0.038688757
0002a0 64 d3 b4 bd b6 24 a9 bc 3b 28 02 bd 10 42 a3 bd
       -0.08829382 -0.020647388 -0.031776648 -0.07971585
0002b0 d4 07 e2 3d 15 67 cc bb 73 13 3c bd c8 be 5e 3d
       0.11036649 -0.0062378743 -0.045916986 0.054381162
0002c0 1b 69 ec bc e9 17 9c bd 5a d1 9c 3d 71 26 44 bd
       -0.028858712 -0.07621748 0.07657118 -0.047888223
0002d0 b4 77 cd bc fd 82 72 bb 2c de 14 3c 68 28 b6 3d
       -0.025081493 -0.0037004345 0.009086173 0.08894426
0002e0 2a 1f ed 3c 2f 35 43 3d d6 ae cb 3b 44 af b1 3c
       0.028945524 0.04765814 0.0062159104 0.021690018
0002f0 df 12 8a 3d 46 81 2d 3b c8 b2 e1 3c 6a 30 1c bc
       0.067418806 0.0026474758 0.02755107 -0.009533027
000300 70 5a e5 bd 86 6b c1 bd df 3d 16 3d 09 30 fa bd
       -0.1119889 -0.094443366 0.0366801 -0.12216193
000310 0c 1f 9c bd 31 b0 ab 3d 5c 73 86 bd 1a b7 8e 3d
       -0.07623109 0.08383215 -0.06564972 0.069685176
000320 0c eb e8 bc 00 f7 d2 3d 5d 58 97 3d 21 21 8f bd
       -0.028432392 0.10301018 0.07389901 -0.06988741
000330 52 3a 28 3d 3f fa df 3d 75 f2 c7 bd 2b aa 95 bd
       0.041071244 0.109364025 -0.09763042 -0.073078476
000340 38 b9 a1 3d 7e ef cd bd 88 02 19 3d 23 fd 79 3d
       0.07896656 -0.10055445 0.03735593 0.061032426
000350 ac 99 d0 3d 17 7a 9e 3c 1a 7c d4 bd b6 24 aa 3d
       0.101855606 0.019345326 -0.10375233 0.08307783
000360 74 3a 8b 3d 49 57 80 bb a2 9d bf 3c f7 8c 1c bc
       0.067982584 -0.003916655 0.023390595 -0.009555093
000370 ec f8 7b 3d 63 54 00 be 04 73 00 be e7 83 da 3d
       0.061516687 -0.12532191 -0.12543875 0.106696896
000380 06 29 d4 bd 46 d5 03 bd 66 10 ff bd cf 53 11 bd
       -0.10359387 -0.032185815 -0.124543 -0.035480317
000390 50 4f c6 bd 6b a4 e7 3c c8 1b 75 3b 92 47 bb bb
       -0.096830964 0.028276643 0.0037400592 -0.005715319
0003a0 78 cc dc bd 13 68 82 3c 5d ea 00 be 8f 16 01 be
       -0.10781187 0.015918767 -0.12589402 -0.12606262
0003b0 b5 ef 8e 3d 76 c5 ca bd 1d fa 0b 3d c3 fb fd bd
       0.06979314 -0.09900944 0.034174073 -0.12401535
0003c0 4f be e9 bd 3f 4b a6 bc 19 dd db 3b e9 cd 05 3c
       -0.114132516 -0.020299552 0.0067097065 0.008166769
0003d0 c6 f2 e2 3d 66 50 ca bd c0 77 cf bd 20 46 e4 3d
       0.110814616 -0.09878616 -0.101302624 0.11146188
0003e0 c4 0c c7 bd e2 36 a7 3c a0 90 8b bd 83 a5 a3 bc
       -0.09719232 0.020411912 -0.068146944 -0.019976383
0003f0 33 03 bb bd 11 22 70 bc 04 fd db 3d 6a 3b 65 bd
       -0.091314696 -0.01465656 0.10741618 -0.055964865

fc2.bias f4 [32]
000000 05 8d 8f bd 13 52 01 3e 14 c2 a9 3a bd e4 dd 3d
       -0.07009319 0.12628965 0.0012951517 0.10834644
000010 0e 9a b5 3d 65 1b d2 bd 07 dc 01 be a9 95 0a bc
       0.08867274 -0.10259131 -0.1268159 -0.008458533
000020 22 3a b8 3d cf fb c0 3d 3e f9 cb 3c d0 fe 52 3c
       0.08995463 0.09423029 0.024899121 0.012878135
000030 7b a7 be bd 44 30 ad bb 71 fa c6 bc 17 11 18 bd
       -0.09309288 -0.0052852947 -0.024289342 -0.037125673
000040 37 ac 11 bd f4 8f a1 3d 19 9f 75 3d 7e 75 7a 3d
       -0.035564627 0.07888785 0.05996618 0.061147206
000050 5a 50 a1 3c 2f 8d 1a 3d f0 12 eb bd 0f 72 d9 bb
       0.019691635 0.0377323 -0.114782214 -0.0066359113
000060 ec 6b b6 3d b3 a5 b4 3d c3 e0 ee 3d 74 59 04 be
       0.08907303 0.08820667 0.11663964 -0.12924749
000070 57 81 fc bc b0 09 b4 3c e1 ac b0 bd 66 31 46 bd
       -0.030823393 0.021977276 -0.08626724 -0.048386954

output.weight f4 [1, 32]
000000 03 42 4a 3e 2f 10 e8 3c 65 42 27 3d 96 0b 1d be
       0.19751744 0.02832803 0.040834803 -0.15336451
000010 8d 13 25 3d 8e 79 2b be 0d 27 7d bd ce 94 d5 bd
       0.04030185 -0.16745588 -0.06180482 -0.10428773
000020 a0 bc e0 3d ed fe ff bd 9b b7 fe 3d dc e2 2e be
       0.10973477 -0.12499795 0.12437364 -0.17078727
000030 29 2c 85 bd 7f e4 fc bd c8 86 6b 3d ef 7b 55 3e
       -0.065025635 -0.1234827 0.057501584 0.20848058
000040 e9 7e 26 be ff 90 1e bd 00 02 28 3e 92 a2 2e bd
       -0.1625935 -0.038712498 0.16407013 -0.042635508
000050 f3 44 a3 bc 27 6e 0b 3e cf 9f 4e bd 6e 18 1f 3e
       -0.019930338 0.13616239 -0.050445374 0.15536663
000060 1c ad 35 bd e0 57 36 3e f6 38 62 3d c7 41 1b be
       -0.044354543 0.17806959 0.055230103 -0.15161811
000070 df 72 25 3e 9f 50 43 3b 47 7e f3 bc dd cb c9 bd
       0.16157101 0.0029802693 -0.0297233 -0.09853337
